IAS_Project_Part2/Models/multi_output_model.pth (torch, 241618 bytes, 14 tensors)

lstm.weight_ih_l0 f4 [256, 34]
-0.09788099 0.028237242 0.07488274 0.0776407 0.033932526 0.078436024 0.019812692 0.013488366
-0.092113584 0.1146267 0.09671803 0.08267501 0.102239005 0.051499356 0.15606838 -0.08801994
-0.009712115 0.038610574 -0.111865014 -0.016586639 0.05569708 -0.06782279 -0.05617709 0.013577992
-0.092300996 -0.043484617 0.085977994 -0.07015433 0.05938129 -0.03086971 -0.040856156 -0.07764344
0.071250245 0.025683759 -0.031640317 -0.016306931 0.01684019 -0.07769409 0.08245621 -0.07622454
0.032469053 0.090676986 -0.060624633 -0.08866575 0.06404694 0.10621762 -0.03797858 0.05971416
0.068118885 -0.021710983 -0.07686833 0.0069901105 -0.015916642 -0.122836985 -0.056414567 -0.0034622604
0.03731554 0.039134163 -0.1247798 0.04504645 0.030513043 0.03511414 0.02237825 -0.08902876
-0.08896246 -0.119012006 -0.062224567 0.06868681 -0.078071274 0.08801835 -0.015525268 0.07771712
-0.14106743 -0.08134747 0.05877861 0.031186424 -0.15496093 0.062278375 -0.084271856 0.05348203
-0.1371721 -0.1297859 -0.080637515 -0.085858755 -0.001440465 0.021266727 -0.04118453 0.02593393
0.02328687 0.096204974 -0.0865723 -0.02064999 -0.04676741 -0.071060404 -0.019379338 0.112018846
-0.01718228 0.06665953 -0.12369351 0.080693655 -0.0547852 -0.08079271 0.07035059 -0.04330931
0.019048879 -0.023338746 -0.09250619 -0.029609662 -0.04486848 0.15864901 0.061887015 0.041957762
-0.0039478843 0.11893678 -0.11122252 0.12108258 0.010415956 -0.13121434 -0.10180777 0.0018691482
0.06128757 0.005543864 -0.087828815 0.022006208 0.11443294 0.04433509 0.106843315 0.01074445
-0.018172815 0.046014935 0.15785708 -0.09963871 0.016547434 0.011634897 0.0068529905 0.16220152
-0.073409505 -0.006289789 -0.005702189 -0.07563632 0.04561535 0.05067529 0.011000799 -0.058918756
-0.07823188 -0.057363883 0.10733572 0.09707822 -0.0814281 0.05912048 0.06120642 0.015634265
-0.09905361 -0.02150557 0.09154387 0.010898884 0.011188769 -0.08378192 0.0037495934 0.016139293
0.027555255 -0.04270583 0.053535838 -0.09785324 -0.05360352 -0.035999183 0.10063315 -0.06498038
-0.023597343 0.08106837 0.016650772 -0.016245162 0.039486486 0.112268806 -0.10921267 -0.008994462
0.056348525 0.061911076 -0.03728721 -0.0039296644 -0.105539314 -0.048300866 -0.089769416 0.030158434
-0.0479108 -0.007622615 -0.03255967 -0.013619495 0.031969853 -0.08052693 -0.0689046 0.01811535
0.0659526 -0.019944346 -0.06300227 -0.10819264 -0.05324338 0.00013878201 -0.056208752 -0.110078946
0.10821995 0.07649012 0.087206915 0.016270049 0.071929164 -0.05180197 0.12006659 0.06654059
0.07065661 0.04584008 0.0023518694 0.072428145 -0.015310323 -0.020053701 -0.1101948 -0.06607105
-0.025366 -0.041737534 -0.065675505 -0.11818824 -0.11049821 0.019299882 -0.05567091 0.11963074
0.14102915 0.09046628 -0.08293724 -0.010053398 -0.0765551 0.030166015 0.019137587 0.069698416
-0.0976988 -0.07271774 0.07938386 0.106542125 -0.059204336 -0.0750399 -0.024006592 -0.08915608
0.010283394 0.089302905 0.012306368 0.113032125 -0.14640035 0.11623121 -0.15984955 -0.05811791
-0.04855594 0.08206403 0.031096812 0.015757255 -0.088013515 -0.007075002 0.060782894 -0.04428842
00000000: d475 c8bd ca51 e73c 1f5c 993d 1602 9f3d
00000010: d5fc 0a3d 11a3 a03d 3a4e a23c 4ffe 5c3c
00000020: 0ca6 bcbd 67c1 ea3d 1a14 c63d 8451 a93d
00000030: af62 d13d fdf0 523d 64d0 1f3e cc43 b4bd
00000040: 901f 1fbc 1f26 1e3d 7c19 e5bd b4e0 87bc
00000050: 9f22 643d ade6 8abd f319 66bd 3a76 5e3c
00000060: 4e08 bdbd ed1c 32bd 3b15 b03d 13ad 8fbd
00000070: cc39 733d 79e2 fcbc c958 27bd 8603 9fbd
00000080: a6eb 913d bf66 d23c 4799 01bd 1d96 85bc
00000090: 70f4 893c 141e 9fbd cdde a83d 9d1b 9cbd
000000a0: 45fe 043d dbb4 b93d 8951 78bd 6496 b5bd
000000b0: 0b2b 833d a088 d93d 6d8f 1bbd d696 743d
000000c0: ea81 8b3d 3bdb b1bc 256d 9dbd 4c0d e53b
000000d0: 9e63 82bc f591 fbbd f612 67bd 17e7 62bb
000000e0: 2ed8 183d 254b 203d 8d8c ffbd a082 383d
000000f0: 7df6 f93c d8d3 0f3d 9752 b73c b654 b6bd
00000100: f331 b6bd 91bc f3bd 30df 7ebd acab 8c3d
00000110: d5e3 9fbd f742 b43d b25d 7ebc 272a 9f3d
00000120: fb73 10be 8199 a6bd d7c1 703d ac7a ff3c
00000130: 14ae 1ebe 9c17 7f3d b996 acbd f90f 5b3d
00000140: d876 0cbe 98e6 04be 4825 a5bd b7d6 afbd
00000150: fccd bcba 8f37 ae3c 1cb1 28bd 6573 d43c
00000160: 1bc4 be3c 1d07 c53d d14c b1bd 2b2a a9bc
00000170: 2f8f 3fbd 1e88 91bd 6bc1 9ebc 236a e53d
00000180: dac1 8cbc cb84 883d 0653 fdbd b742 a53d
00000190: 7266 60bd a676 a5bd f813 903d 1a65 31bd
000001a0: 650c 9c3c e630 bfbc e373 bdbd f68f f2bc
000001b0: 03c8 37bd e374 223e 3d7d 7d3d e7db 2b3d
000001c0: 415d 81bb 2095 f33d a2c8 e3bd 25fa f73d
000001d0: b0a7 2a3c 0d5d 06be 9880 d0bd 35fe f43a
000001e0: ad08 7b3d 4da9 b53b 98df b3bd 5d46 b43c
000001f0: d15b ea3d b698 353d abd0 da3d 7d09 303c
00000200: 28df 94bc 287a 3c3d 49a5 213e 610f ccbd
00000210: 7c8e 873c 4ca0 3e3c 0d8f e03b 2818 263e
00000220: b957 96bd 931a cebb 6ed9 babb 37e7 9abd
00000230: 29d7 3a3d e590 4f3d b23c 343c cb54 71bd
00000240: 0938 a0bd 64f6 6abd d4d2 db3d f2d0 c63d
00000250: c7c3 a6bd 5128 723d 95b3 7a3d 6e13 803c
00000260: 9edc cabd 732c b0bc 5a7b bb3d 3c91 323c
00000270: 1951 373c db95 abbd bdbb 753b 8d36 843c
00000280: 8fbb e13c 4fec 2ebd 6548 5b3d 4867 c8bd
00000290: 5d8f 5bbd e173 13bd c118 ce3d 6f14 85bd
000002a0: 374f c1bc 2c07 a63d 3367 883c 9314 85bc
000002b0: 95bc 213d 30ed e53d e4aa dfbd 825d 13bc
000002c0: b6cd 663d 7896 7d3d 79ba 18bd 6ac4 80bb
000002d0: ff24 d8bd 21d7 45bd 07d9 b7bd d20e f73c
000002e0: 1d3e 44bd 21c7 f9bb 4a5d 05bd 4d24 5fbc
000002f0: d2f2 023d 4eeb a4bd db1d 8dbd a466 943c
00000300: 2812 873d 5362 a3bc 5607 81bd 1a94 ddbd
00000310: bb15 5abd 0386 1139 263b 66bd 1271 e1bd
00000320: 6ca2 dd3d daa6 9c3d 8a99 b23d c448 853c
00000330: 994f 933d 4d2e 54bd 79e5 f53d 6f46 883d
00000340: 6ab4 903d cfc2 3b3d d221 1a3b 3555 943d
00000350: 26d8 7abc a947 a4bc d0ad e1bd 4250 87bd
00000360: 5ccc cfbc faf4 2abd e180 86bd ad0c f2bd
00000370: e34c e2bd c91a 9e3c 2e07 64bd f600 f53d
00000380: f269 103e 6346 b93d 00db a9bd 02b7 24bc
00000390: ecc8 9cbd b81e f73c 6ec6 9c3c 0bbe 8e3d
000003a0: 4f16 c8bd 0aed 94bd 0194 a23d c232 da3d
000003b0: 3f80 72bd 85ae 99bd 79a9 c4bc 7697 b6bd
000003c0: ae7b 283c 71e4 b63d a6a0 493c 637d e73d
000003d0: f9e9 15be a10a ee3d 9aaf 23be 0c0d 6ebd
000003e0: 98e2 46bd 3011 a83d bebe fe3c 5c15 813c
000003f0: 6e40 b4bd 6bd5 e7bb 7cf7 783d c667 35bd

lstm.weight_hh_l0 f4 [256, 64]
-5.19786e-40 -4.9883e-40 -4.94377e-40 4.98901e-40 -5.21336e-40 -4.90618e-40 4.94571e-40 -4.91081e-40
-4.96645e-40 4.93027e-40 -4.97067e-40 -5.16489e-40 4.97008e-40 4.97347e-40 -4.91915e-40 -4.92334e-40
-5.0478e-40 4.9098e-40 5.08123e-40 5.04557e-40 -4.90588e-40 5.08422e-40 4.95112e-40 -4.93134e-40
4.92007e-40 -4.91358e-40 5.01385e-40 -4.9407e-40 4.93734e-40 -6.16169e-40 -5.4391e-40 -5.11932e-40
-5.51938e-40 -4.91363e-40 6.04101e-40 4.91634e-40 4.9172e-40 -4.93805e-40 4.93634e-40 -5.9558e-40
5.19271e-40 4.91187e-40 4.92114e-40 -4.91713e-40 4.94242e-40 4.9839e-40 4.9149e-40 5.18256e-40
-5.16463e-40 4.97532e-40 -4.99571e-40 -5.00366e-40 4.90684e-40 5.00097e-40 4.91993e-40 5.08914e-40
-5.88002e-40 -4.95962e-40 -5.0601e-40 -4.93484e-40 -4.90533e-40 -4.9297e-40 5.02258e-40 5.0125e-40
4.98766e-40 -4.95575e-40 4.93659e-40 4.91253e-40 -5.01138e-40 -4.90471e-40 4.92049e-40 -4.9818e-40
4.92383e-40 4.92723e-40 -4.98227e-40 -6.29836e-40 4.93187e-40 -5.05516e-40 4.90645e-40 4.9661e-40
5.0691e-40 -5.02328e-40 5.01142e-40 -4.95649e-40 -5.01389e-40 5.2076e-40 4.9613e-40 -4.9126e-40
-5.18927e-40 -5.14743e-40 -4.92632e-40 4.91002e-40 -4.94302e-40 5.59531e-40 4.9281e-40 -5.81211e-40
-4.93836e-40 5.02095e-40 5.03457e-40 -5.63499e-40 -5.08241e-40 -4.92016e-40 -5.0356e-40 4.96685e-40
-4.98889e-40 -4.91363e-40 4.94224e-40 -4.90736e-40 -4.99161e-40 5.15522e-40 5.36594e-40 5.00907e-40
4.93543e-40 -5.08014e-40 4.90908e-40 4.94892e-40 -4.94294e-40 -4.95705e-40 -4.94504e-40 -4.9119e-40
4.92105e-40 -5.91806e-40 4.93142e-40 4.92041e-40 4.97566e-40 5.60127e-40 -4.9286e-40 -5.81973e-40
-5.0967e-40 -4.9266e-40 -4.99235e-40 5.00828e-40 -4.91943e-40 -5.0602e-40 4.93146e-40 -4.91355e-40
4.92234e-40 5.12074e-40 -4.93506e-40 -5.01387e-40 -4.91332e-40 -4.95341e-40 5.15203e-40 -4.91606e-40
5.00598e-40 4.93783e-40 4.98366e-40 -4.90506e-40 -5.76463e-40 -5.01376e-40 -5.03386e-40 4.90838e-40
-4.93124e-40 4.93705e-40 4.97224e-40 -5.09214e-40 4.99463e-40 4.91504e-40 -5.06155e-40 4.95607e-40
4.95737e-40 4.90897e-40 -5.0016e-40 4.95323e-40 5.04379e-40 -5.17344e-40 5.16732e-40 -5.0452e-40
-4.99147e-40 4.93327e-40 5.61991e-40 -5.0475e-40 -4.95704e-40 -5.0004e-40 -5.83317e-40 5.04402e-40
-5.29733e-40 -6.21211e-40 -5.0587e-40 5.83456e-40 -4.93485e-40 5.16942e-40 4.93211e-40 -4.91808e-40
-4.91846e-40 -5.03596e-40 5.1141e-40 4.93593e-40 4.93756e-40 -4.93954e-40 -4.98225e-40 -5.07384e-40
-4.93469e-40 -4.98348e-40 -4.91172e-40 -4.98838e-40 -4.97654e-40 4.96694e-40 5.79532e-40 4.90922e-40
-4.93776e-40 4.93334e-40 -5.12495e-40 -4.9353e-40 -4.92025e-40 -4.95655e-40 -4.91263e-40 -4.91634e-40
4.99431e-40 4.9794e-40 4.92474e-40 4.92596e-40 -4.93432e-40 -4.96963e-40 5.0206e-40 -5.0534e-40
5.02001e-40 -5.08625e-40 5.17766e-40 -5.01383e-40 4.92849e-40 -4.98452e-40 -5.99429e-40 -5.04158e-40
-4.9139e-40 4.92691e-40 -4.93857e-40 -5.0489e-40 -4.99547e-40 -4.91801e-40 -4.93065e-40 -4.9337e-40
-4.90767e-40 4.9523e-40 4.91078e-40 4.93976e-40 -5.11531e-40 4.94204e-40 4.91608e-40 6.20159e-40
4.92804e-40 -4.91456e-40 4.98826e-40 -4.93923e-40 5.04708e-40 5.00244e-40 5.42961e-40 -5.05867e-40
-4.94717e-40 4.92507e-40 4.98792e-40 4.92911e-40 -4.92517e-40 5.11381e-40 4.93043e-40 4.95877e-40
00000000: f4a8 0580 896e 0580 1f62 0580 bc6e 0500
00000010: 46ad 0580 a557 0580 aa62 0500 ef58 0580
00000020: 7268 0580 5c5e 0500 9f69 0580 c39f 0580
00000030: 7569 0500 676a 0500 425b 0580 6d5c 0580
00000040: 1f7f 0580 a758 0500 7188 0500 807e 0500
00000050: 8f57 0580 4689 0500 2c64 0500 a85e 0580
00000060: 845b 0500 b559 0580 a875 0500 4461 0580
00000070: 5460 0500 a1b5 0680 33ec 0580 0f93 0580
00000080: 9402 0680 b859 0580 fd93 0600 7a5a 0500
00000090: b75a 0500 8760 0580 0d60 0500 3c7c 0680
000000a0: 84a7 0500 3b59 0500 d05b 0500 b25a 0580
000000b0: bf61 0500 4f6d 0500 135a 0500 b0a4 0500
000000c0: b09f 0580 eb6a 0500 9a70 0580 d172 0580
000000d0: d457 0500 1172 0500 7a5b 0500 a58a 0500
000000e0: 1c67 0680 8a66 0580 8d82 0580 a25f 0580
000000f0: 6857 0580 335e 0580 1778 0500 4875 0500
00000100: 5b6e 0500 7665 0580 1f60 0500 6a59 0500
00000110: f874 0580 3c57 0580 a25b 0500 b96c 0580
00000120: 905c 0500 835d 0500 db6c 0580 badb 0680
00000130: ce5e 0500 2c81 0580 b857 0500 5968 0500
00000140: 0f85 0500 4978 0580 fb74 0500 ab65 0580
00000150: ab75 0580 abab 0500 0267 0500 6f59 0580
00000160: 8fa6 0580 e59a 0580 425d 0580 b758 0500
00000170: ea61 0580 bf17 0600 c15d 0500 2e54 0680
00000180: 9d60 0580 a377 0500 6f7b 0500 ce22 0680
00000190: c588 0580 8a5b 0580 b87b 0580 8e68 0500
000001a0: b36e 0580 b859 0580 b261 0500 f957 0580
000001b0: 756f 0580 119d 0500 ced7 0500 5374 0500
000001c0: cc5f 0500 2388 0580 7458 0500 8f63 0500
000001d0: e461 0580 d365 0580 7a62 0580 3d59 0580
000001e0: ca5b 0500 b771 0680 ae5e 0500 9c5b 0500
000001f0: 036b 0500 6819 0600 e55d 0580 4e56 0680
00000200: c18c 0580 565d 0580 aa6f 0580 1b74 0500
00000210: 565b 0580 9482 0580 b15e 0500 b359 0580
00000220: 265c 0500 7493 0500 b25f 0580 aa75 0580
00000230: a259 0580 cf64 0580 2d9c 0500 665a 0580
00000240: 7773 0500 7760 0500 3e6d 0500 5557 0580
00000250: f246 0680 a275 0580 3c7b 0580 4258 0500
00000260: a15e 0580 4060 0500 0f6a 0500 7b8b 0580
00000270: 4d70 0500 1d5a 0500 f482 0580 8d65 0500
00000280: ea65 0500 6c58 0500 3e72 0580 c264 0500
00000290: 017e 0500 25a2 0580 70a0 0500 667e 0580
000002a0: 6b6f 0580 325f 0500 9a1e 0600 0a7f 0580
000002b0: d265 0580 e871 0580 0d5a 0680 117e 0500
000002c0: aec4 0580 afc3 0680 2982 0580 705a 0600
000002d0: a35f 0580 06a1 0500 df5e 0500 f65a 0580
000002e0: 115b 0580 d27b 0580 9a91 0500 f05f 0500
000002f0: 6460 0500 f160 0580 d96c 0580 6186 0580
00000300: 975f 0580 316d 0580 3059 0580 8f6e 0580
00000310: 426b 0580 9568 0500 804f 0600 7e58 0500
00000320: 7260 0580 375f 0500 a194 0580 c35f 0580
00000330: 915b 0580 af65 0580 7159 0580 7a5a 0580
00000340: 3670 0500 0e6c 0500 d15c 0500 285d 0500
00000350: 7d5f 0580 5569 0580 8a77 0500 af80 0580
00000360: 6077 0500 d789 0580 52a3 0500 a775 0580
00000370: dd5d 0500 7b6d 0580 f786 0680 637d 0580
00000380: cc59 0580 6c5d 0500 ac60 0580 6e7f 0580
00000390: 8970 0580 f15a 0580 775e 0580 515f 0580
000003a0: 0f58 0580 8064 0500 ed58 0500 0161 0500
000003b0: f191 0580 a461 0500 675a 0500 c0c0 0600
000003c0: bd5d 0500 fb59 0580 866e 0500 db60 0580
000003d0: ec7e 0500 7a72 0500 8ee9 0500 2782 0580
000003e0: 1263 0580 e95c 0500 6e6e 0500 095e 0500
000003f0: f05c 0580 8691 0500 675e 0500 4e66 0500

lstm.bias_ih_l0 f4 [256]
0.022341687 -0.045440942 -0.29241017 -0.104928024 0.026980376 0.04333675 -0.0809643 -0.16907476
0.010258475 -0.07530198 -0.03133364 -0.0845027 -0.11853824 0.05646229 0.092316315 0.074931204
-0.18714356 -0.09521208 -0.10465019 0.026804842 -0.0018189942 0.09003146 -0.12133591 -0.10872639
-0.075794324 0.098599 -0.014766233 -0.13854004 -0.020391336 -0.032541417 0.002210365 -0.04522013
-0.043523062 0.121382356 -0.27001432 0.075295955 -0.18507369 0.030118676 -0.034462485 0.09728914
0.12566224 -0.04131236 0.11321484 -0.05655178 -0.11514025 -0.0938656 -0.016318846 0.0704383
-0.024495801 -0.18487427 -0.07665976 -0.19341776 0.076695584 -0.0051355693 -0.01222437 0.09513872
-0.11484947 0.05225189 -0.030600995 0.08590161 -0.019216489 -0.0032401048 -0.19771332 -0.12564544
-4.90784e-40 5.16607e-40 4.96573e-40 4.94492e-40 4.93033e-40 -4.93023e-40 4.91664e-40 -4.99365e-40
-4.98227e-40 -4.9253e-40 5.15124e-40 -4.98265e-40 4.95293e-40 -4.98229e-40 4.93095e-40 -5.09177e-40
-4.94147e-40 -4.97085e-40 5.04575e-40 -5.09711e-40 5.0058e-40 -5.12187e-40 4.91882e-40 -4.97923e-40
4.94067e-40 -4.91702e-40 4.93976e-40 4.9437e-40 4.99996e-40 -4.90512e-40 -4.98184e-40 -5.10853e-40
-4.99105e-40 -4.98183e-40 4.90927e-40 5.93877e-40 5.04724e-40 4.96343e-40 4.9194e-40 -5.14176e-40
-4.97946e-40 5.01223e-40 4.9192e-40 -4.91482e-40 -5.5453e-40 -4.92447e-40 5.01202e-40 4.99908e-40
-4.91426e-40 5.27857e-40 -5.84571e-40 5.3914e-40 6.0373e-40 -4.93421e-40 -4.90694e-40 4.95536e-40
-5.70506e-40 5.32363e-40 4.93386e-40 -4.9196e-40 4.91036e-40 -4.96948e-40 4.96634e-40 -4.93256e-40
0.02736682 0.039398298 -0.20202981 0.13517529 0.10318682 0.06946791 0.076721445 -0.040278655
0.065803066 -0.0004783192 -0.06541323 0.01696246 -0.0745903 -0.016692527 0.06085572 -0.029558634
0.06274821 -0.021959763 0.13371961 -0.037744746 -0.065775625 0.0058874446 -0.124508426 -0.1536276
0.008953936 0.052848604 0.08791603 0.012063585 0.039402813 0.062439516 0.018744592 0.20446311
0.16060723 0.090934314 0.11725316 0.13939701 0.09598898 0.032993134 -0.065096445 0.025212325
-0.089988336 -0.005914497 -0.0068550925 -0.0044198926 0.08613162 -0.013245557 -0.033641476 0.13509566
-0.045116935 -0.18776333 -0.11599431 0.061727207 0.19791016 0.0071633053 0.06740716 -0.06253421
-0.003385371 0.07631021 0.046444315 -0.07844632 0.09862404 0.06571853 -0.03389827 -0.09335837
0.08432456 0.14552647 -0.28496444 -0.10552034 -0.015528489 -0.085766956 -0.1490863 -0.13317595
0.10108358 -0.057571113 0.027182603 -0.034604397 -0.12710877 -0.02572484 -0.08777146 0.07634535
-0.15443419 -0.027335454 0.092424616 -0.10792893 0.10214198 0.010502765 -0.04314385 -0.00853025
0.02418236 0.049938973 -0.03711409 -0.13213038 -0.13024496 -0.012113039 -0.16671112 0.067634284
-0.17958167 0.047111683 -0.15601441 0.041433338 -0.25050852 0.03340789 0.081048064 0.14856826
0.05960207 0.04724117 0.2253569 -0.095306404 0.0019082745 -0.06519862 -0.10058148 0.055325657
0.06189744 -0.14777595 0.037260883 -0.22733507 0.052352216 -0.19216788 0.08234881 0.10254503
-0.077893294 -0.024819558 0.052812714 0.02699934 -0.08033876 -0.015076138 -0.012476394 -0.021092653
00000000: ea05 b73c 4820 3abd c9b6 95be 81e4 d6bd
00000010: f305 dd3c e081 313d 9cd0 a5bd ef21 2dbe
00000020: 2a13 283c ed37 9abd b457 00bd c00f adbd
00000030: 2dc4 f2bd 0145 673d 5610 bd3d 8875 993d
00000040: 90a2 3fbe 8dfe c2bd d752 d6bd d495 db3c
00000050: 516b eeba 6a62 b83d f67e f8bd f1ab debd
00000060: 0e3a 9bbd 46ee c93d 12ee 71bc 71dd 0dbe
00000070: bb0b a7bc 264a 05bd c5db 103b be38 39bd
00000080: 3d45 32bd 5097 f83d 513f 8abe c434 9a3d
00000090: f583 3dbe 71bb f63c 8928 0dbd 873f c73d
000000a0: 9aad 003e 2637 29bd 2fdd e73d d7a2 67bd
000000b0: a7ce ebbd 9c3c c0bd 1aaf 85bc f541 903d
000000c0: 6bab c8bc ae4f 3dbe cbff 9cbd 4e0f 46be
000000d0: 9312 9d3d 4748 a8bb b948 48bc 17d8 c23d
000000e0: 3336 ebbd 1406 563d f0ae fabc 2fed af3d
000000f0: e66b 9dbc f057 54bb 5c75 4abe 33a9 00be
00000100: 1b58 0580 17a0 0500 3e68 0500 7162 0500
00000110: 605e 0500 595e 0580 8f5a 0500 0770 0580
00000120: db6c 0580 f95c 0580 f59b 0500 f66c 0580
00000130: ad64 0500 dc6c 0580 8c5e 0500 618b 0580
00000140: 7b61 0580 ac69 0580 8d7e 0500 de8c 0580
00000150: 6a73 0500 c593 0580 2b5b 0500 026c 0580
00000160: 4261 0500 aa5a 0580 0161 0500 1a62 0500
00000170: c971 0500 5957 0580 bc6c 0580 0d90 0580
00000180: 4d6f 0580 bb6c 0580 8158 0500 7d77 0600
00000190: f77e 0500 9a67 0500 545b 0500 5099 0580
000001a0: 126c 0580 3575 0500 465b 0500 0d5a 0580
000001b0: ce09 0680 be5c 0580 2675 0500 8a71 0500
000001c0: e559 0580 73bf 0500 8c5d 0680 e7de 0500
000001d0: f492 0600 755f 0580 db57 0580 5a65 0500
000001e0: 5736 0680 03cc 0500 5c5f 0500 625b 0580
000001f0: cf58 0500 4a69 0580 6a68 0500 ff5e 0580
00000200: 6230 e03c 1c60 213d e7e0 4ebe 646b 0a3e
00000210: 9d53 d33d 3145 8e3d 2220 9d3d 3bfb 24bd
00000220: c2c3 863d ebc6 fab9 5ff7 85bd dbf4 8a3c
00000230: cdc2 98bd c4be 88bc d943 793d f324 f2bc
00000240: 2282 803d f6e4 b3bc cbed 083e 3c9a 1abd
00000250: 5fb5 86bd 77eb c03b 46fe febd 8e50 1dbe
00000260: 88b3 123c c777 583d 520d b43d 58a6 453c
00000270: d864 213d 94c0 7f3d 428e 993c c75e 513e
00000280: 3976 243e c53b ba3d 6d22 f03d 17be 0e3e
00000290: df95 c43d cf23 073d 4951 85bd 148a ce3c
000002a0: ce4b b8bd 66ce c1bb afa0 e0bb bfd4 90bb
000002b0: c665 b03d e503 59bc a5cb 09bd 8456 0a3e
000002c0: 89cc 38bd 0845 40be 6d8e edbd abd5 7c3d
000002d0: f6a8 4a3e 29ba ea3b c40c 8a3d f011 80bd
000002e0: 1add 5dbb 8748 9c3d 653c 3e3d 77a8 a0bd
000002f0: 67fb c93d 7097 863d ead8 0abd ac32 bfbd
00000300: 5bb2 ac3d e404 153e dce6 91be 0c1b d8bd
00000310: 346b 7ebc 96a6 afbd 14aa 18be 475f 08be
00000320: e804 cf3d b0cf 6bbd 0dae de3c 57bd 0dbd
00000330: cd28 02be e6bc d2bc 86c1 b3bd f35a 9c3d
00000340: ff23 1ebe 9aee dfbc 1e49 bd3d d809 ddbd
00000350: d02f d13d ca13 2c3c 9bb7 30bd 76c2 0bbc
00000360: 161a c63c cf8c 4c3d f204 18bd 304d 07be
00000370: ef5e 05be c575 46bc 52b6 2abe d883 8a3d
00000380: 42e4 37be 2ef8 403d 3ec2 1fbe 01b6 293d
00000390: a742 80be b6d6 083d 87fc a53d 4722 183e
000003a0: 4d21 743d f57f 413d f6c3 663e 0130 c3bd
000003b0: 111f fa3a db86 85bd aafd cdbd 289d 623d
000003c0: 2c88 7d3d 9452 17be de9e 183d 86ca 68be
000003d0: 476f 563d a8c7 44be 7ea6 a83d 2103 d23d
000003e0: 8586 9fbd 6352 cbbc 2552 583d b82d dd3c
000003f0: a688 a4bd e801 77bc ca69 4cbc 80ca acbc

lstm.bias_hh_l0 f4 [256]
0.14523003 0.03007812 -0.19211033 -0.06479687 -0.15060586 0.0035181465 0.027618881 -0.17453076
0.06384974 -0.028560454 -0.04240333 -0.08727621 -0.11290818 -0.053930074 0.066919155 -0.00954549
-0.11644529 -0.10000012 -0.12074698 0.0050876923 0.04165634 0.07532213 -0.073610194 -0.019547284
-0.009111883 0.12394793 -0.17331 -0.07125947 -0.19771409 -0.005130476 -0.18927722 0.09546053
-0.075117275 0.1666234 -0.23349504 -0.11807072 -0.29671195 -0.17114694 0.052028034 0.07245546
-0.10663597 -0.008558485 0.14514124 -0.07049426 -0.114750065 0.0392051 -0.067856535 0.006709705
-0.005609164 -0.12441762 -0.0808464 -0.12670662 0.11085514 0.004799638 -0.020909652 0.069471434
-0.1095434 0.05386961 -0.009002351 0.1222461 0.040865753 -0.043551654 -0.15891296 -0.21574314
5.06852e-40 -4.93033e-40 -5.06393e-40 4.92537e-40 -5.88555e-40 -4.90949e-40 -4.97373e-40 4.92767e-40
4.91973e-40 -4.98813e-40 4.95906e-40 -4.99479e-40 4.9116e-40 4.916e-40 -5.41738e-40 5.23702e-40
-4.93132e-40 -4.98439e-40 4.94316e-40 5.04582e-40 5.89947e-40 -4.95271e-40 -5.00105e-40 -5.08171e-40
-4.9873e-40 4.90973e-40 5.0507e-40 4.99755e-40 4.98527e-40 4.90595e-40 4.92304e-40 -5.15004e-40
4.92743e-40 5.00726e-40 -5.15709e-40 5.05172e-40 -4.90753e-40 4.93973e-40 5.89676e-40 -4.96668e-40
-4.94178e-40 4.90658e-40 -4.9229e-40 5.04054e-40 -5.34822e-40 -5.0226e-40 4.91627e-40 5.09261e-40
4.92856e-40 -5.10775e-40 4.93003e-40 -5.3786e-40 -4.98414e-40 -4.93471e-40 4.94801e-40 -6.26752e-40
-4.93083e-40 4.90826e-40 -4.93628e-40 4.94436e-40 4.95589e-40 -4.98946e-40 -4.95362e-40 4.9315e-40
-0.021685077 -0.07552545 -0.23817545 -0.045074314 0.054030564 -0.0638125 0.16429639 -0.0053907367
0.023140738 0.04395609 -0.14726846 -0.04484856 0.121505134 0.037551552 -0.108996525 -0.12144154
0.08514692 -0.03329053 0.13281962 0.0636779 -0.19587903 0.13605008 -0.121374354 0.021604475
0.059038047 -0.00063077116 -0.0458258 0.083634205 -0.108399175 -0.07024143 0.12295844 0.21188046
0.1611429 -0.095073916 0.16734728 0.048518687 -0.0029481917 0.09925195 -0.11215828 -0.031750835
-0.20994867 -0.07524594 0.043190263 0.07226615 -0.023244778 0.052866586 0.019989021 0.03493007
0.01994362 -0.18250082 0.035535745 0.039662197 0.12863939 0.13914984 0.012468265 -0.008871847
-0.115470536 -0.03618749 0.06341891 0.042291377 0.021948922 0.12044176 0.03339234 0.015975468
0.14535634 -0.011550385 -0.17450029 -0.08373904 -0.15954126 0.09444548 -0.0048846323 -0.14287546
0.034298446 0.13616845 -0.04598593 0.16383484 0.0074300184 -0.0107115 0.011309115 0.060324527
-0.21036465 -0.12163684 -0.019652432 0.003029021 0.16356581 0.07133676 -0.08699142 -0.061605822
-0.1917331 0.17188205 -0.11330358 -0.12298198 -0.17873569 0.16548629 -0.040366046 -0.023412319
-0.16012353 0.19970958 -0.105699115 0.025794027 -0.13014902 -0.15934382 0.12861842 0.17366184
0.0892661 -0.06080206 0.23303725 -0.17639396 -0.041627932 0.03976301 -0.019204509 0.030586964
-0.13692145 -0.21865669 0.009953759 -0.055189405 0.023942368 -0.013080374 0.078436375 0.05322835
-0.018339751 0.07599068 -0.11314179 0.17687641 0.08488533 -0.011481786 -0.08207637 -0.03947913
00000000: 2eb7 143e 6466 f63c 92b8 44be 39b4 84bd
00000010: 6c38 1abe b490 663b fe40 e23c 31b8 32be
00000020: a7c3 823d 9df7 e9bc 1daf 2dbd dfbd b2bd
00000030: 673c e7bd c8e5 5cbd e90c 893d b064 1cbc
00000040: de7a eebd ddcc ccbd 314a f7bd a8b6 a63b
00000050: d79f 2a3d 7d42 9a3d f1c0 96bd a021 a0bc
00000060: 024a 15bc 6ad8 fd3d 2d78 31be 7cf0 91bd
00000070: 9075 4abe 8d1d a8bb e3d1 41be cf80 c33d
00000080: 16d7 99bd 539f 2a3e 5319 6fbe 10cf f1bd
00000090: a1ea 97be 2541 2fbe 591b 553d 8763 943d
000000a0: f663 dabd e338 0cbc e89f 143e 4b5f 90bd
000000b0: 1502 ebbd 8795 203d 5ef8 8abd 16dd db3b
000000c0: 14cd b7bb aace febd cc92 a5bd 61bf 01be
000000d0: 0508 e33d 4846 9d3b b84a abbc 0a47 8e3d
000000e0: 4a58 e0bd 61a6 5c3d 997e 13bc 2a5c fa3d
000000f0: d962 273d 3863 32bd 14ba 22be c5eb 5cbe
00000100: e684 0500 605e 0580 9e83 0580 fe5c 0500
00000110: a768 0680 9158 0580 796a 0580 a25d 0500
00000120: 6c5b 0500 7d6e 0580 6266 0500 5870 0580
00000130: 2759 0500 615a 0500 25e6 0580 deb3 0500
00000140: a75e 0580 726d 0580 f461 0500 927e 0500
00000150: 886c 0600 9d64 0580 1772 0580 9388 0580
00000160: 426e 0580 a258 0500 ee7f 0500 1d71 0500
00000170: b16d 0500 9457 0500 585c 0500 9f9b 0580
00000180: 915d 0500 d273 0500 969d 0580 3780 0500
00000190: 0558 0580 ff60 0500 c76b 0600 8268 0580
000001a0: 9161 0580 c157 0500 4e5c 0580 197d 0500
000001b0: ded2 0580 1978 0580 755a 0500 9d8b 0500
000001c0: e25d 0500 d58f 0580 4b5e 0500 56db 0580
000001d0: 606d 0580 995f 0580 4e63 0500 21d3 0680
000001e0: 845e 0580 3958 0500 0960 0580 4962 0500
000001f0: 8065 0500 dc6e 0580 de64 0580 b45e 0500
00000200: e7a4 b1bc 16ad 9abd 44e4 73be d89f 38bd
00000210: 274f 5d3d 21b0 82bd 503d 283e c7a4 b0bb
00000220: a591 bd3c 4d0b 343d 8bcd 16be 20b3 37bd
00000230: afd7 f83d a8cf 193d 9239 dfbd 58b6 f8bd
00000240: 8261 ae3d a75b 08bd de01 083e 8f69 823d
00000250: 8394 48be b650 0b3e 1e93 f8bd defb b03c
00000260: e1d1 713d 565a 25ba d6b3 3bbd 6948 ab3d
00000270: 6300 debd bdda 8fbd a2d1 fb3d 31f7 583e
00000280: a502 253e 1db6 c2bd 165d 2b3e 88bb 463d
00000290: 7336 41bb 9b44 cb3d 3eb3 e5bd 2a0d 02bd
000002a0: c9fc 56be 8b1a 9abd 46e8 303d 4600 943d
000002b0: d56b bebc a28a 583d 04c0 a33c d512 0f3d
000002c0: cd60 a33c 7fe1 3abe ee8d 113d d474 223d
000002d0: 0bba 033e 4c7d 0e3e b247 4c3c 395b 11bc
000002e0: d17b ecbd 5539 14bd c6e1 813d b939 2d3d
000002f0: 3ace b33c 2baa f63d 68c6 083d fcde 823c
00000300: 4bd8 143e d33d 3dbc 34b0 32be 607f abbd
00000310: c95e 23be a26c c13d 440f a0bb f24d 12be
00000320: 877c 0c3d be6f 0b3e be5b 3cbd 52c4 273e
00000330: 8377 f33b 4a7f 2fbc de49 393c da16 773d
00000340: d569 57be bc1c f9bd 23fe a0bc 8a82 463b
00000350: cc7d 273e 0219 923d 8f28 b2bd 6356 7cbd
00000360: af55 44be d901 303e b50b e8bd fadd fbbd
00000370: 7d06 37be 3d75 293e de56 25bd 31cb bfbc
00000380: 6cf7 23be ab80 4c3e c778 d8bd ff4d d33c
00000390: c945 05be 072b 23be 8cb4 033e 69d4 313e
000003a0: 25d1 b63d 950b 79bd 51a1 6e3e 9ea0 34be
000003b0: 0d82 2abd 8ade 223d c652 9dbc 8391 fa3c
000003c0: 2335 0cbe 8ae7 5fbe 1715 233c 490e 62bd
000003d0: c922 c43c 114f 56bc 40a3 a03d f805 5a3d
000003e0: 3f3d 96bc 00a1 9b3d e2b6 e7bd 171f 353e
000003f0: 5cd8 ad3d 1a1e 3cbc a817 a8bd deb4 21bd

lstm.weight_ih_l1 f4 [256, 64]
-0.08844694 -0.06432446 0.13363692 0.11502957 -0.15303461 -0.045122825 0.054722838 -0.018763004
0.016778473 0.008730526 0.11000848 0.04539525 0.023761334 -0.11963019 0.1532248 -0.007829344
0.09949666 -0.11034902 0.0057445695 -0.060553458 0.1406488 0.085724525 0.06794264 0.07811455
-0.05125395 -0.121586554 0.05840116 0.026574139 0.051065616 0.04414586 -0.021560848 -0.068126336
-0.023933733 0.046948988 0.04709947 -0.068158284 -0.06233881 -0.07400204 -0.13593084 -0.0017588739
0.09134573 -0.13268021 0.02316645 -0.072092265 0.0114205675 -0.047506776 -0.09937407 -0.06252184
0.018787611 0.124917805 0.10076537 -0.07237864 -0.0034241732 -0.05014292 -0.047318116 0.02320839
0.1358738 -0.041917156 -0.01508254 -0.007884215 -0.001242047 -0.15601027 0.002450459 0.059492152
0.087689124 0.037500598 0.119415194 -0.03077211 0.00037482296 -0.06600566 -0.018151341 -0.119596034
-0.05057929 0.12180338 0.09794886 0.08966493 -0.016699998 0.08565475 -0.050559852 0.027595788
0.025655946 -0.014315302 0.022557614 0.040242523 0.015339931 -0.03739979 0.08431149 0.059705935
0.0963375 0.07209169 -0.04929366 -0.008435894 -0.088820525 -0.095886 0.06675829 0.0039847107
-0.11369617 -0.041943803 -0.14325611 -0.12952694 -0.005908893 0.047204502 -0.10395055 0.06753007
-0.10401963 0.07100216 -0.057573456 0.0051596947 0.12498562 -0.03935799 0.08356235 0.07679351
-0.029205155 0.023938898 -0.06855951 0.0032098712 -0.03303157 0.03272401 -0.00283751 -0.014979075
-0.08184216 0.15377122 0.07659332 -0.038948927 0.03513297 -0.046554375 0.003965368 -0.0058420715
0.012431377 0.07223124 0.10588727 -0.043007154 0.042125944 0.06006308 -0.060581155 0.037009567
0.0327915 0.14545947 0.14340693 -0.020259297 0.054076724 0.033664986 -0.06748133 -0.10989605
-0.040749036 0.027554795 0.0067219916 -0.040207002 0.0070645753 -0.08838466 0.007815961 0.048126604
-0.046946753 0.023037491 0.0343142 -0.031441756 -0.024900194 -0.072052404 0.005688419 0.027825361
-0.13126577 0.08729705 -0.014402022 -0.088447176 -0.11748588 -0.020097675 -0.083290406 0.09866839
0.08091936 -0.041334838 -0.013232228 -0.074712254 0.062028825 -0.06406986 -0.047169786 -0.00478211
0.06714686 -0.06237618 -0.04958574 0.05340497 0.035366368 0.032552127 0.039490305 -0.0125313
0.073679574 -0.02825824 -0.08026666 -0.071160525 0.12012661 -0.011826329 -0.016704846 -0.006824935
0.08808756 0.10206926 0.1345475 0.081484154 -0.04903366 -0.12707704 -0.0757162 0.026365802
0.114222445 0.0516104 0.10194978 -0.0033168318 0.01563661 0.06978163 0.08226317 -0.12957437
-0.08102552 0.06200921 -0.052151483 -0.06789081 -0.095792405 -0.11936803 0.15899628 0.056893453
0.05925639 -0.04308374 0.034299266 0.062194377 -0.037326884 0.09778296 0.07506307 -0.04721235
-0.040077724 -0.0610314 0.028981704 -0.06171618 0.005207868 0.041304868 0.057521995 -0.046441745
-0.078408234 0.072611935 -0.010850752 -0.04726481 -0.040204648 0.07658626 0.044106785 0.042215027
0.01080297 -0.042651333 -0.09936711 0.036548432 0.06606926 0.038321268 0.0732658 0.0382813
-0.056782797 -0.009915671 0.02446466 0.06759541 0.1451757 -0.010054093 0.032483894 -0.09961134
00000000: ab23 b5bd 8bbc 83bd 1ed8 083e a094 eb3d
00000010: 1bb5 1cbe b6d2 38bd 0e25 603d dfb4 99bc
00000020: 0273 893c 7b0a 0f3c 204c e13d 5ff0 393d
00000030: 21a7 c23c ac00 f5bd f6e6 1c3e a646 00bc
00000040: e8c4 cb3d abfe e1bd f13c bc3b e706 78bd
00000050: 3d06 103e 5790 af3d 8325 8b3d 85fa 9f3d
00000060: a9ef 51bd 5f02 f9bd 0e36 6f3d 02b2 d93c
00000070: 2e2a 513d 4ad2 343d 60a0 b0bc d285 8bbd
00000080: ad10 c4bc 954d 403d 60eb 403d 9296 8bbd
00000090: fb56 7fbd 628e 97bd 7431 0bbe 048a e6ba
000000a0: 7813 bb3d 52dd 07be 91c7 bd3c 1ca5 93bd
000000b0: 551d 3b3c 7796 42bd a284 cbbd 730b 80bd
000000c0: 7ae8 993c e8d4 ff3d 135e ce3d 413b 94bd
000000d0: 1868 60bb aa62 4dbd a4d0 41bd 861f be3c
000000e0: 8022 0b3e 53b1 2bbd c21c 77bc cb2c 01bc
000000f0: 2ecc a2ba 28c1 1fbe e197 203b 0bae 733d
00000100: 5b96 b33d 3a9a 193d f48f f43d cb15 fcbc
00000110: e383 c439 fa2d 87bd 1fb2 94bc c4ee f4bd
00000120: 3b2c 4fbd 0d74 f93d 6999 c83d 3fa2 b73d
00000130: 6fce 88bc c26b af3d d917 4fbd 9010 e23c
00000140: 6b2c d23c ba8a 6abc bfca b83c 58d5 243d
00000150: 5554 7b3c 8630 19bd 81ab ac3d 368e 743d
00000160: 984c c53d cfa4 933d 26e8 49bd b436 0abc
00000170: 89e7 b5bd e15f c4bd 92b8 883d 2d92 823b
00000180: 8ad9 e8bd 44cd 2bbd bbb1 12be b6a2 04be
00000190: 639f c1bb 8259 413d 07e4 d4bd 354d 8a3d
000001a0: 3e08 d5bd 9569 913d 25d2 6bbd a812 a93b
000001b0: 76f8 ff3d d835 21bd bd22 ab3d ea45 9d3d
000001c0: a63f efbc 821b c43c ee68 8cbd b45c 523b
000001d0: 1d4c 07bd 9d09 063d 85f5 39bb cb6a 75bc
000001e0: dd9c a7bd 3476 1d3e f5dc 9c3d e988 1fbd
000001f0: 97e7 0f3d cdaf 3ebd ebef 813b d96e bfbb
00000200: f9ac 4b3c f9ed 933d 6ddb d83d 4528 30bd
00000210: 418c 2c3d b404 763d f223 78bd 5897 173d
00000220: 6150 063d 54f3 143e 44d9 123e d3f6 a5bc
00000230: 8e7f 5d3d 4ce4 093d a733 8abd 2e11 e1bd
00000240: 76e8 26bd 98ba e13c 2744 dc3b 19b0 24bd
00000250: f47d e73b 0403 b5bd 840e 003c 6720 453d
00000260: 3d4b 40bd 1fb9 bc3c 0c8d 0c3d 12c9 00bd
00000270: 7efb cbbc 3690 93bd eb65 ba3b 03f2 e33c
00000280: 896a 06be ccc8 b23d 75f6 6bbc cb23 b5bd
00000290: 709c f0bd e1a3 a4bc 2994 aabd a712 ca3d
000002a0: 0db9 a53d b84e 29bd fdcb 58bc bd02 99bd
000002b0: f011 7e3d 0f37 83bd 1b35 41bd 3fb3 9cbb
000002c0: 4b84 893d 2a7e 7fbd 6b1a 4bbd 2bbf 5a3d
000002d0: 53dc 103d 6155 053d 96c0 213d 1550 4dbc
000002e0: 51e5 963d d37d e7bc d962 a4bd 9cbc 91bd
000002f0: f104 f63d 38c3 41bc 9ad8 88bc b4a3 dfbb
00000300: 4067 b43d b009 d13d d2c6 093e 2ae1 a63d
00000310: 85d7 48bd 7c20 02be 1811 9bbd 18fd d73c
00000320: 75ed e93d 6d65 533d 0ccb d03d 345f 59bb
00000330: 5918 803c ace9 8e3d 9879 a83d 25af 04be
00000340: b5f0 a5bd 5ffd 7d3d cb9c 55bd 560a 8bbd
00000350: cf2e c4bd 3a77 f4bd eccf 223e 1c09 693d
00000360: d4b6 723d 9378 30bd 637d 0c3d 88bf 7e3d
00000370: 13e4 18bd 6f42 c83d abba 993d bd61 41bd
00000380: 8a28 24bd 10fc 79bd 0a6b ed3c 1bca 7cbd
00000390: c3a6 aa3b 4b2f 293d 2f9c 6b3d b339 3ebd
000003a0: 7f94 a0bd 91b5 943d 5ac7 31bc bf98 41bd
000003b0: a1ad 24bd 42d9 9c3d 51a9 343d aae9 2c3d
000003c0: f1fe 303c 2ab3 2ebd fc80 cbbd cfb3 153d
000003d0: 524f 873d c3f6 1c3d 610c 963d dacc 1c3d
000003e0: 1495 68bd 5775 22bc 1c6a c83c 766f 8a3d
000003f0: f0a8 143e ecb9 24bc d50d 053d 0801 ccbd

lstm.weight_hh_l1 f4 [256, 64]
-5.02167e-40 -4.92238e-40 4.93923e-40 4.92751e-40 -5.2571e-40 5.30742e-40 4.94235e-40 -5.01644e-40
5.51335e-40 5.05912e-40 -5.47639e-40 -5.03118e-40 -5.0924e-40 4.91459e-40 4.93093e-40 -4.96201e-40
-5.92728e-40 -4.94661e-40 -5.01487e-40 -4.91779e-40 4.98017e-40 -4.95606e-40 4.91412e-40 -4.9339e-40
-4.97583e-40 -5.00294e-40 -4.90494e-40 6.0592e-40 5.01743e-40 -4.91486e-40 4.96581e-40 5.97937e-40
4.99399e-40 4.93137e-40 -5.07606e-40 4.92971e-40 4.95302e-40 -4.93456e-40 -4.96933e-40 4.98829e-40
-5.03851e-40 4.9668e-40 -5.08638e-40 4.92209e-40 4.90704e-40 -5.06889e-40 4.99484e-40 -4.95262e-40
4.9756e-40 4.93498e-40 -4.99962e-40 -4.92304e-40 4.9194e-40 -4.92732e-40 -4.96815e-40 -4.94346e-40
-4.92593e-40 -4.97203e-40 4.95177e-40 5.01369e-40 4.93037e-40 4.97951e-40 -4.934e-40 -4.96033e-40
-4.93316e-40 -4.90516e-40 -5.88998e-40 -5.50185e-40 5.06051e-40 -4.97035e-40 5.0185e-40 -4.9134e-40
4.93921e-40 4.94748e-40 5.16761e-40 -4.92995e-40 5.26765e-40 -4.9302e-40 4.98394e-40 5.77873e-40
5.21311e-40 -4.93181e-40 -4.91913e-40 5.21226e-40 4.9065e-40 -4.98502e-40 -5.09756e-40 4.94293e-40
4.99291e-40 -4.90529e-40 -5.53219e-40 -4.95013e-40 4.9263e-40 -4.93313e-40 -4.92153e-40 4.90768e-40
4.90808e-40 4.90688e-40 4.9451e-40 5.00437e-40 -4.92408e-40 -5.56757e-40 5.13227e-40 -4.93387e-40
5.24698e-40 4.91267e-40 -5.24215e-40 5.28896e-40 -5.03572e-40 -4.95337e-40 -4.92816e-40 -4.95673e-40
5.02392e-40 4.95337e-40 5.7298e-40 -4.90653e-40 -4.94092e-40 -4.96396e-40 4.94109e-40 -5.02281e-40
5.00123e-40 4.9111e-40 4.91817e-40 4.93902e-40 -4.94552e-40 4.97241e-40 -4.9484e-40 4.9219e-40
-4.93403e-40 -5.12467e-40 -5.04718e-40 -4.98868e-40 5.03725e-40 5.73197e-40 4.98145e-40 5.04351e-40
-4.91264e-40 4.93506e-40 4.91547e-40 -4.9064e-40 5.1297e-40 -4.91553e-40 4.9316e-40 4.91438e-40
5.00268e-40 4.90854e-40 -5.0212e-40 4.93088e-40 4.91668e-40 4.9113e-40 4.90824e-40 -4.98868e-40
-4.93104e-40 5.09947e-40 -4.92496e-40 5.0904e-40 -4.95834e-40 -4.97796e-40 -4.92474e-40 -5.81916e-40
-4.92362e-40 -4.96193e-40 -5.29035e-40 5.09549e-40 -4.9261e-40 4.93186e-40 -5.1105e-40 -4.93675e-40
5.07288e-40 -4.99668e-40 -4.96759e-40 -4.97413e-40 -5.01987e-40 4.9993e-40 -4.92355e-40 5.1705e-40
4.92272e-40 -4.93698e-40 5.02485e-40 -4.9177e-40 -5.00243e-40 5.05046e-40 5.01829e-40 -4.91074e-40
4.98006e-40 5.45422e-40 4.9411e-40 -4.99042e-40 5.0656e-40 -5.20217e-40 4.95314e-40 -4.92575e-40
-4.9246e-40 5.06268e-40 -4.91728e-40 -4.9987e-40 4.9283e-40 -4.93362e-40 4.9728e-40 4.92442e-40
-5.29789e-40 5.04154e-40 -4.90775e-40 -4.90809e-40 4.94333e-40 4.92846e-40 -5.9187e-40 -4.9615e-40
-5.02789e-40 5.10863e-40 -4.92147e-40 4.95963e-40 -5.01584e-40 -4.9135e-40 4.96285e-40 -5.16579e-40
-5.4637e-40 4.9757e-40 5.0163e-40 -5.02448e-40 4.99854e-40 5.8097e-40 -4.91071e-40 5.009e-40
4.9121e-40 5.01564e-40 -4.93027e-40 4.93107e-40 5.06613e-40 4.91549e-40 -4.96843e-40 4.92586e-40
5.00912e-40 -4.91503e-40 5.05106e-40 -5.00503e-40 -4.92956e-40 -4.9293e-40 4.90558e-40 5.91674e-40
4.91732e-40 4.92954e-40 5.02888e-40 -4.98667e-40 -4.92342e-40 -6.11684e-40 -5.29244e-40 4.91861e-40
-5.13434e-40 -4.92845e-40 -4.93668e-40 4.92674e-40 4.96383e-40 4.985e-40 5.05537e-40 -4.91804e-40
00000000: d677 0580 295c 0580 db60 0500 975d 0500
00000010: 77b9 0580 7ec7 0500 ba61 0500 6176 0580
00000020: e600 0600 4782 0500 98f6 0580 7d7a 0580
00000030: 8e8b 0580 fd59 0500 8b5e 0500 3567 0580
00000040: 4974 0680 ea62 0580 f175 0580 e15a 0580
00000050: 456c 0500 8c65 0580 db59 0500 5f5f 0580
00000060: 0f6b 0580 9e72 0580 4c57 0580 0f99 0600
00000070: a876 0500 105a 0580 4468 0500 ce82 0600
00000080: 1f70 0500 aa5e 0500 0087 0580 345e 0500
00000090: b364 0500 8e5f 0580 3f69 0580 886e 0500
000000a0: 887c 0580 8b68 0500 e089 0580 145c 0500
000000b0: e257 0500 0085 0580 5c70 0500 9764 0580
000000c0: ff6a 0500 ac5f 0500 b171 0580 585c 0580
000000d0: 545b 0500 895d 0580 eb68 0580 0962 0580
000000e0: 265d 0580 006a 0580 5a64 0500 9d75 0500
000000f0: 635e 0500 166c 0500 665f 0580 bd66 0580
00000100: 2a5f 0580 5c57 0580 e369 0680 b1fd 0580
00000110: aa82 0500 8869 0580 f476 0500 a859 0580
00000120: da60 0500 2863 0500 85a0 0500 455e 0580
00000130: 68bc 0500 575e 0580 526d 0500 e04a 0600
00000140: 34ad 0500 ca5e 0580 415b 0580 f7ac 0500
00000150: bc57 0500 9f6d 0580 fe8c 0580 e361 0500
00000160: d26f 0500 6557 0580 2606 0680 e563 0580
00000170: 415d 0500 285f 0580 ec5b 0580 1058 0500
00000180: 2c58 0500 d757 0500 7e62 0500 0473 0500
00000190: a25c 0580 0310 0680 ab96 0500 5d5f 0580
000001a0: a5b6 0500 7459 0500 4cb5 0580 59c2 0500
000001b0: c17b 0580 cc64 0580 c55d 0580 bc65 0580
000001c0: 7778 0500 cc64 0500 3c3d 0600 be57 0580
000001d0: 5461 0580 c067 0580 6061 0500 2878 0580
000001e0: 2472 0500 0459 0500 fc5a 0500 cc60 0500
000001f0: 9c62 0580 1b6a 0500 6a63 0580 075c 0500
00000200: 685f 0580 8d94 0580 f37e 0580 a46e 0580
00000210: 2e7c 0500 d73d 0600 a06c 0500 ed7d 0500
00000220: 7259 0580 b25f 0500 3c5a 0500 b457 0580
00000230: f495 0500 405a 0580 bb5e 0500 ee59 0500
00000240: 8b72 0500 4d58 0500 b577 0580 875e 0500
00000250: 925a 0500 1259 0500 3858 0500 a46e 0580
00000260: 935e 0580 868d 0500 e15c 0580 ff8a 0500
00000270: 2f66 0580 a76b 0580 d15c 0580 2556 0680
00000280: 815c 0580 2f67 0580 bcc2 0580 6a8c 0500
00000290: 325d 0580 cd5e 0500 9990 0580 2a60 0580
000002a0: 1d86 0500 df70 0580 c368 0580 966a 0580
000002b0: 5677 0580 9a71 0500 7c5c 0580 53a1 0500
000002c0: 415c 0500 3b60 0580 b978 0500 db5a 0580
000002d0: 7972 0580 dd7f 0500 e576 0500 ea58 0580
000002e0: 3d6c 0500 6af0 0500 6161 0500 206f 0580
000002f0: 1584 0500 27aa 0580 bc64 0500 195d 0580
00000300: c75c 0580 4583 0500 bd5a 0580 6f71 0580
00000310: cf5d 0500 4b5f 0580 376a 0500 ba5c 0500
00000320: d6c4 0580 607d 0500 1558 0580 2d58 0580
00000330: 0062 0500 db5d 0500 e571 0680 1067 0580
00000340: 9279 0580 1490 0500 e85b 0580 8b66 0500
00000350: 3676 0580 af59 0580 7167 0500 03a0 0580
00000360: 0ff3 0580 066b 0500 5776 0500 9f78 0580
00000370: 6471 0500 8253 0600 e858 0580 4e74 0500
00000380: 4b59 0500 2876 0500 5c5e 0580 955e 0500
00000390: 3b84 0500 3d5a 0500 ff68 0580 215d 0500
000003a0: 5774 0500 1c5a 0580 0880 0500 3373 0580
000003b0: 295e 0580 175e 0580 7a57 0500 5971 0600
000003c0: c05a 0500 285e 0500 d979 0500 156e 0580
000003d0: 735c 0580 20a9 0680 51c3 0580 1c5b 0500
000003e0: 3f97 0580 da5d 0580 2560 0580 605d 0500
000003f0: b767 0500 9d6d 0500 3b81 0500 f35a 0580

lstm.bias_ih_l1 f4 [256]
-0.027847674 -0.014146477 0.013571019 0.017390072 0.1089839 0.04932922 0.15985717 0.020407671
0.023771623 0.087571524 0.102914035 -0.005664859 0.11651406 -0.059755526 0.019057611 0.063691534
0.06109544 0.032628413 0.0049991645 0.018154262 -0.08744786 0.11687339 0.054096095 0.017153392
0.029378109 0.046866015 -0.05027517 0.0094180135 0.027296586 -0.0068845153 0.11725459 -0.06570708
0.09301734 0.113248914 -0.08476442 0.02951986 0.02525629 0.027209649 0.18821988 0.042049225
0.10649635 0.025599228 -0.08911145 -0.02155242 0.14394945 0.0673925 0.055422317 -0.0071697882
-0.010137527 0.03596459 0.08608714 0.0905877 0.07244375 -0.0064277286 0.10509408 0.060614564
0.09395214 -0.0069846944 -0.025218748 0.11022239 0.14101301 0.18035693 0.04907375 0.18291521
6.30028e-40 -4.95496e-40 -4.95048e-40 4.98946e-40 -4.98062e-40 -5.185e-40 -5.19111e-40 -4.92786e-40
-5.00587e-40 4.9118e-40 5.08535e-40 4.91178e-40 4.95666e-40 -4.90684e-40 4.92632e-40 -5.05671e-40
5.00838e-40 4.91185e-40 4.91026e-40 -4.93138e-40 5.42448e-40 -4.9467e-40 5.21413e-40 4.95111e-40
-4.95799e-40 -4.90901e-40 4.90798e-40 4.93176e-40 4.99966e-40 4.9225e-40 4.92814e-40 5.97715e-40
-4.93998e-40 -4.91466e-40 5.09711e-40 5.12156e-40 -4.91484e-40 5.01626e-40 -4.98209e-40 -4.98338e-40
4.92697e-40 4.9284e-40 4.94235e-40 -5.13141e-40 -5.25183e-40 -4.96801e-40 -4.94709e-40 -4.95833e-40
4.92671e-40 5.72824e-40 4.9431e-40 -4.92258e-40 -4.94122e-40 4.91826e-40 -4.93079e-40 4.93477e-40
-5.58755e-40 -4.9641e-40 4.93048e-40 4.95872e-40 4.91721e-40 -5.00935e-40 5.29499e-40 -5.0209e-40
0.16257691 0.009423181 0.0132263 -0.16287708 0.14514148 -0.16206147 -0.08145302 -0.12522632
-0.085864365 0.0895057 -0.0808075 -0.15949227 0.076917805 0.16149706 0.117345266 -0.077414416
-0.022986915 0.09963439 0.26964632 -0.099584326 0.03254978 -0.05638216 0.120506786 0.005810333
0.052788105 0.1663429 -0.111846946 -0.24765444 -0.1982358 -0.12486024 0.032493543 0.14899217
0.013062853 0.05725683 0.07149741 -0.13691841 0.044890154 0.12126641 0.15767033 -0.16495848
0.035373326 0.08190296 0.17331311 -0.08888101 -0.2011824 -0.09815045 0.023094086 -0.010006114
0.10896286 0.12514137 0.116491854 0.09005168 0.09914963 -0.09450807 0.1453728 -0.08490476
0.15613312 -0.20716563 0.116122134 -0.03608828 0.09091914 -0.095668964 -0.13837074 -0.051938385
-0.011646968 0.08685911 -0.018605635 0.11286236 -0.0076536615 0.057251103 0.08698883 0.09109492
-0.04705957 0.079575405 0.030278793 0.0138177015 0.0039484245 0.045304548 0.028930627 0.12482199
0.1740375 0.05209091 -0.042248145 0.16112083 0.013811342 -0.09123417 0.119741715 0.051371172
0.093423724 -0.026369696 -0.011304179 -0.08281007 -0.041485798 -0.0010596177 0.166275 -0.08724773
0.08258458 0.04152785 -0.06266771 0.0015064528 0.1379885 0.03438899 0.03514564 0.032834984
0.11692501 0.15078768 0.030979306 0.010848997 -0.0045177983 0.07528464 0.13357179 0.13411655
0.08729432 0.098655805 0.13069676 -0.0019030696 0.11466078 0.1038855 0.07762927 0.11158139
0.09375044 0.021469915 0.109884314 0.20765902 0.051668312 -0.010469468 0.08325617 0.095501415
00000000: ce20 e4bc a0c6 67bc fb58 5e3c a075 8e3c
00000010: f332 df3d 700d 4a3d 99b1 233e fd2d a73c
00000020: b5bc c23c b358 b33d 98c4 d23d 48a0 b9bb
00000030: ec9e ee3d 36c2 74bd b51e 9c3c b570 823d
00000040: 363f 7a3d 5fa5 053d 08d0 a33b 3fb8 943c
00000050: dd17 b3bd 515b ef3d de93 5d3d 4585 8c3c
00000060: 5caa f03c 94f6 3f3d 56ed 4dbd 034e 1a3c
00000070: 179d df3c 8097 e1bb 2d23 f03d 6f91 86bd
00000080: e07f be3d 0cef e73d f898 adbd a2d3 f13c
00000090: 47e6 ce3c c5e6 de3c b6bc 403e cf3b 2c3d
000000a0: c21a da3d 79b5 d13c 1080 b6bd b38e b0bc
000000b0: 7c67 133e 1405 8a3d 8302 633d 8bf0 eabb
000000c0: df17 26bc 9b4f 133d 744e b03d 0b86 b93d
000000d0: 645d 943d b29f d2bb 913b d73d fa46 783d
000000e0: fb69 c03d dddf e4bb 8c97 cebc 47bc e13d
000000f0: b765 103e 7daf 383e 8e01 493d 204e 3b3e
00000100: 43dc 0600 3e65 0580 fe63 0580 dc6e 0500
00000110: 656c 0580 5ea5 0580 12a7 0580 b05d 0580
00000120: 6f73 0580 3659 0500 9789 0500 3459 0500
00000130: b765 0500 d457 0580 425d 0500 9b81 0580
00000140: 2274 0500 3959 0500 c858 0500 ab5e 0580
00000150: 20e8 0500 f062 0580 7dad 0500 2b64 0500
00000160: 1666 0580 6f58 0580 2558 0500 c65e 0500
00000170: b471 0500 315c 0500 c45d 0500 3082 0600
00000180: 1161 0580 025a 0580 de8c 0500 af93 0500
00000190: 0f5a 0580 5476 0500 ce6c 0580 2a6d 0580
000001a0: 705d 0500 d65d 0500 ba61 0500 6e96 0580
000001b0: ffb7 0580 e168 0580 0c63 0580 2e66 0580
000001c0: 5e5d 0500 cd3c 0600 ef61 0500 375c 0580
000001d0: 6961 0580 035b 0500 815e 0580 9d5f 0500
000001e0: 9515 0680 ca67 0580 6b5e 0500 4a66 0500
000001f0: b85a 0500 6774 0580 07c4 0500 9f77 0580
00000200: 907a 263e b063 1a3c 1fb3 583c 40c9 26be
00000210: f89f 143e 71f3 25be d7d0 a6bd 543b 00be
00000220: a8d9 afbd c44e b73d 677e a5bd f151 23be
00000230: 1587 9d3d 7c5f 253e b752 f03d 738b 9ebd
00000240: 0e4f bcbc 1d0d cc3d 150f 8a3e def2 cbbd
00000250: eb52 053d fbf0 66bd 43cc f63d 9b64 be3b
00000260: 5738 583d cb55 2a3e 0310 e5bd 2099 7dbe
00000270: 53fe 4abe bab6 ffbd f317 053d 6791 183e
00000280: 9405 563c 2386 6a3d 3c6d 923d 5734 0cbe
00000290: bdde 373d 865a f83d 5574 213e e0ea 28be
000002a0: 9fe3 103d bdbc a73d fe78 313e 3f07 b6bd
000002b0: c202 4ebe 1a03 c9bd cf2f bd3c aff0 23bc
000002c0: ec27 df3d 0f25 003e 4893 ee3d 046d b83d
000002d0: f60e cb3d 728d c1bd 9bdc 143e 8ce2 adbd
000002e0: 5ce1 1f3e 3a23 54be 71d1 ed3d 4ed1 13bd
000002f0: d033 ba3d 17ee c3bd 0fb1 0dbe 58bd 54bd
00000300: edd2 3ebc 30e3 b13d d86a 98bc 6224 e73d
00000310: 91cb fabb 2280 6a3d 3327 b23d f98f ba3d
00000320: 89c1 40bd 6ef8 a23d 3b0b f83c a463 623c
00000330: c961 813b 4391 393d ecff ec3c aca2 ff3d
00000340: e336 323e 475d 553d 640c 2dbd dcfc 243e
00000350: f848 623c fbd8 babd 253b f53d 946a 523d
00000360: f054 bf3d 4305 d8bc 2a35 39bc 5398 a9bd
00000370: 03ed 29bd dfe2 8aba fe43 2a3e f0ae b2bd
00000380: 1b22 a93d 1b19 2a3d ee57 80bd 2b74 c53a
00000390: db4c 0d3e 78db 0c3d e0f4 0f3d fa7d 063d
000003a0: 6176 ef3d 1668 1a3e 50c8 fd3c febf 313c
000003b0: 0a0a 94bb d52e 9a3d 0bc7 083e d955 093e
000003c0: 5dc7 b23d 0e0c ca3d 5fd5 053e 6b70 f9ba
000003d0: 45d3 ea3d ecc1 d43d 18fc 9e3d c984 e43d
000003e0: 3b00 c03d ade1 af3c 070b e13d 91a4 543e
000003f0: 27a2 533d 2288 2bbc 3682 aa3d 3f96 c33d
